simple_music_model.pth (torch, 748278 bytes, 1 tensors)

token_embedding_table.weight f4 [432, 432]
0	0xc06e2367	-3.7209108
1	0xc07b563b	-3.927138
2	0xc0853a6f	-4.163383
3	0xc093790b	-4.6085258
4	0xc056871e	-3.351997
5	0xc076523b	-3.848769
6	0xc044f7ff	-3.0776365
7	0xc0744709	-3.8168356
8	0xc06497e8	-3.5717716
9	0xc0398848	-2.898943
10	0xc09e48dd	-4.9463944
11	0xc089202e	-4.285178
12	0xc06b38ec	-3.6753492
13	0xc0821c0b	-4.065923
14	0xc0939f38	-4.613186
15	0xc02559d7	-2.5836084
16	0xc02fd040	-2.7470856
17	0xc07efc9c	-3.984168
18	0xc06895ea	-3.63415
19	0xc04466a9	-3.0687659
20	0xc0ae78c1	-5.4522405
21	0xc05d960b	-3.462283
22	0xc02861a0	-2.6309586
23	0xc05860a8	-3.3808994
24	0xc07106f9	-3.7660506
25	0xc0a36f15	-5.10731
26	0xc0999bac	-4.800253
27	0xc08495ab	-4.14327
28	0xc05fff20	-3.4999466
29	0xc090983b	-4.518583
30	0xc0266923	-2.600167
31	0xbfe270d6	-1.7690685
32	0xc08d0ecf	-4.4080577
33	0xc08268bf	-4.0752864
34	0xc041fd63	-3.0310905
35	0xc0714377	-3.7697427
36	0xc06f51c5	-3.7393658
37	0xc03b5965	-2.9273312
38	0xc0997432	-4.795434
39	0xc083a2f6	-4.1136427
40	0xc0890ec5	-4.283053
41	0xc093b169	-4.6154065
42	0xc05abcc2	-3.4177709
43	0xc0a1cd76	-5.0563307
44	0xc09abd12	-4.83558
45	0xc0596699	-3.396887
46	0xc08b5ef2	-4.35534
47	0xc08dd73d	-4.432524
48	0xc01fd7f0	-2.4975548
49	0xc090a0ef	-4.519645
50	0xc02facbb	-2.7449176
51	0xc0830d25	-4.0953546
52	0xc0a23070	-5.068413
53	0xc0070fb3	-2.1103332
54	0xbfc6e38d	-1.5538193
55	0xc0a7ca23	-5.243425
56	0xc02a4963	-2.6607292
57	0xc0a22d04	-5.067995
58	0xc04c1a0d	-3.18909
59	0xc0815f42	-4.042878
60	0xc04e5bf1	-3.2243617
61	0xc025e3fc	-2.59204
62	0xc021c5bd	-2.527694
63	0xc0865c11	-4.1987386
64	0xc0916dbc	-4.5446453
65	0xc058047e	-3.3752742
66	0xc07a5cb2	-3.9119077
67	0xc07b0d56	-3.922689
68	0xc088c91e	-4.2745504
69	0xc05f0a98	-3.4850216
70	0xc08290a9	-4.0801587
71	0xc0974b66	-4.727954
72	0xc00c3cfe	-2.1912227
73	0xc089d122	-4.306779
74	0xc06beb01	-3.6862185
75	0xc052ba28	-3.292612
76	0xc0a027a5	-5.0048394
77	0xc0479186	-3.118257
78	0xc0700c46	-3.750749
79	0xc06ba495	-3.6819203
80	0xbfe47524	-1.7848248
81	0xc09b2ec4	-4.8494587
82	0xc041f62f	-3.0306509
83	0xc05a3e26	-3.4100432
84	0xc0a42b7c	-5.130308
85	0xc09c5750	-4.8856583
86	0xc0531614	-3.2982225
87	0xc080f859	-4.030316
88	0xc0657440	-3.5852203
89	0xc084c482	-4.148988
90	0xc05e80f0	-3.4766197
91	0xc08fb220	-4.490494
92	0xc086c472	-4.21148
93	0xc0873c02	-4.226075
94	0xc095a3ab	-4.676229
95	0xc0868535	-4.2037606
96	0xc0a5ea48	-5.184849
97	0xc09ea84d	-4.9580445
98	0xc0802b91	-4.005318
99	0xc0448e03	-3.0711677
100	0xc07600e5	-3.8438046
101	0xc08f12a0	-4.4710236
102	0xc0839eec	-4.1131496
103	0xc076c28d	-3.8556244
104	0xc08079e5	-4.0148797
105	0xc07ea948	-3.979082
106	0xc068274f	-3.6273992
107	0xc02ddf13	-2.7167404
108	0xc0714c04	-3.7702646
109	0xbfded8ca	-1.7409909
110	0xc08c7a46	-4.389926
111	0xc0ad0b0e	-5.4075994
112	0xc0847290	-4.1389847
113	0xc0773e70	-3.863186
114	0xc0467b7d	-3.1012871
115	0xc0aaff25	-5.3436456
116	0xc06ede1b	-3.7323062
117	0xc05f6b8d	-3.4909394
118	0xc0a84013	-5.2578216
119	0xc058a57c	-3.3851004
120	0xc01a2825	-2.4087002
121	0xc068da9a	-3.6383424
122	0xc06740c3	-3.6133277
123	0xc08cd190	-4.4005814
124	0xc08ceaf5	-4.4036813
125	0xc066db38	-3.60713
126	0xc08a2451	-4.316933
127	0xc0a114f3	-5.0338073
128	0xc0aee278	-5.465145
129	0xc01608b4	-2.3442812
130	0xc0323f89	-2.7851279
131	0xc087930e	-4.236701
132	0xc02fe7c5	-2.748521
133	0xc01d64fd	-2.4592888
134	0xc07e30ea	-3.9717355
135	0xc0a647b8	-5.1962547
136	0xc0790f5e	-3.891563
137	0xc073c440	-3.8088531
138	0xc03fc323	-2.9962852
139	0xc053bfca	-3.3085809
140	0xc0677b2d	-3.616893
141	0xc08f357e	-4.47528
142	0xc0503fca	-3.2538934
143	0xc0488bbf	-3.1335294
144	0xbffa5f6f	-1.9560374
145	0xc0449d21	-3.0720904
146	0xc0a2a47f	-5.08258
147	0xc083732e	-4.10781
148	0xc07da42c	-3.9631453
149	0xc08408b5	-4.126063
150	0xc08c3101	-4.380982
151	0xc03b1bc3	-2.9235694
152	0xc09563bd	-4.668425
153	0xc06eb526	-3.7298064
154	0xc0367910	-2.851139
155	0xc081f905	-4.061648
156	0xc0970ab7	-4.720058
157	0xc08cd4e8	-4.4009895
158	0xc022c9b3	-2.5435607
159	0xc08dfd4f	-4.4371715
160	0xc092fd1c	-4.593397
161	0xc0742e1c	-3.8153143
162	0xc07a9e24	-3.9159021
163	0xbff48dfd	-1.9105831
164	0xc0bd03a3	-5.906694
165	0xc05cb505	-3.4485486
166	0xc090eb9f	-4.5287623
167	0xc08245ce	-4.071021
168	0xc0776cde	-3.8660197
169	0xc00a28b9	-2.1587355
170	0xc07fec5b	-3.998801
171	0xc0818efe	-4.048705
172	0xc09e55ae	-4.947959
173	0xc07aabab	-3.9167278
174	0xc0aa4a8b	-5.3215995
175	0xc09f238d	-4.9730897
176	0xc084dbec	-4.151846
177	0xc099aaf4	-4.8021183
178	0xc0700dc7	-3.750841
179	0xc06ee6ac	-3.732829
180	0xc04fdd53	-3.2478836
181	0xc0472e5f	-3.1122053
182	0xc0a75947	-5.229648
183	0xc03223e4	-2.7834406
184	0xc044b621	-3.0736163
185	0xc03f51ed	-2.9893754
186	0xc0564f32	-3.3485837
187	0xc09cbc2c	-4.89797
188	0xc08daeb3	-4.4275756
189	0xc00540f6	-2.08209
190	0xc05c9d58	-3.4471035
191	0xc036c89c	-2.8559942
192	0xc06d9976	-3.7124915
193	0xc084c8a5	-4.1494927
194	0xc017c213	-2.3712204
195	0xc02d8585	-2.7112744
196	0xc03e534a	-2.9738336
197	0xc08bd2b6	-4.3694715
198	0xc087cccb	-4.243749
199	0xc059a1b4	-3.4004946
200	0xc076b36b	-3.8547008
201	0xc0a5c560	-5.1803436
202	0xc03c4426	-2.9416595
203	0xc05c2d29	-3.4402564
204	0xc09ba47f	-4.86383
205	0xc094a5fb	-4.6452613
206	0xc07c1fd0	-3.9394417
207	0xc0716c06	-3.7722182
208	0xc067ea98	-3.6236935
209	0xc08ead02	-4.458619
210	0xc083fcba	-4.1246004
211	0xc087ba2e	-4.241477
212	0xc0558d58	-3.336752
213	0xc0578331	-3.3673823
214	0xc035adde	-2.838737
215	0xc050d62f	-3.2630727
216	0xc05cffbd	-3.453109
217	0xc0496b2a	-3.1471658
218	0xc0830168	-4.0939217
219	0xc08f3347	-4.4750094
220	0xc08b020b	-4.3439994
221	0xc0642150	-3.5645332
222	0xc08a4c1e	-4.3217916
223	0xc0863b3a	-4.19473
224	0xc08af912	-4.342904
225	0xc0819d7e	-4.050475
226	0xc076f35e	-3.858604
227	0xc083d3d8	-4.11961
228	0xc0794239	-3.894667
229	0xc04c13da	-3.1887116
230	0xc077a463	-3.8694084
231	0xc087810e	-4.2345037
232	0xc04c245b	-3.189719
233	0xc0a25b12	-5.073617
234	0xc0570e09	-3.3602316
235	0xc0aa8a74	-5.329401
236	0xc0950c91	-4.657784
237	0xc074562e	-3.81776
238	0xc087b233	-4.240503
239	0xc086a87a	-4.208066
240	0xc027c064	-2.6211176
241	0xc079c19b	-3.9024417
242	0xc090aeb8	-4.521328
243	0xc099aa97	-4.802074
244	0xc061175a	-3.5170503
245	0xc0833523	-4.1002364
246	0xc078555b	-3.8802097
247	0xc09287a9	-4.57906
248	0xc084435d	-4.133223
249	0xc06e0563	-3.7190788
250	0xc093da98	-4.620434
251	0xc09bcd54	-4.8688145
252	0xc03c2544	-2.9397745
253	0xc0ab889f	-5.3604274
254	0xc089930c	-4.2992
255	0xc03e3605	-2.972047
